workspace: /home/arefab00/projects/lagrangian_flow_nets/experiments/optimal_transport/DFNN
Found 2 CUDA devices.
NVIDIA GeForce RTX 2080 Ti 	 Memory: 10.76GB
Quadro P600 	 Memory: 1.93GB
NeuralConservationLaw(
  (F_zero): SubharmonicMixture(
    (params): Sequential(
      (0): Linear(in_features=1, out_features=96, bias=True)
      (1): Swish(96)
      (2): Linear(in_features=96, out_features=96, bias=True)
      (3): Swish(96)
      (4): Linear(in_features=96, out_features=96, bias=True)
      (5): Swish(96)
      (6): Linear(in_features=96, out_features=96, bias=True)
      (7): Swish(96)
      (8): Linear(in_features=96, out_features=640, bias=True)
    )
    (exp1): Exp1()
  )
  (F_other): Sequential(
    (0): Linear(in_features=2, out_features=96, bias=True)
    (1): Softplus(beta=20, threshold=20)
    (2): Linear(in_features=96, out_features=96, bias=True)
    (3): Softplus(beta=20, threshold=20)
    (4): Linear(in_features=96, out_features=96, bias=True)
    (5): Softplus(beta=20, threshold=20)
    (6): Linear(in_features=96, out_features=96, bias=True)
    (7): Softplus(beta=20, threshold=20)
    (8): Linear(in_features=96, out_features=2, bias=True)
  )
)
Iter 10 | Time 0.8653 | Loss 10.8640(11.2992) | GradNorm 0.7077 | LCoef 50.000000
Iter 20 | Time 0.2296 | Loss 10.3437(11.2463) | GradNorm 0.9068 | LCoef 50.000000
Iter 30 | Time 0.2350 | Loss 8.8751(11.0966) | GradNorm 9.1859 | LCoef 50.000000
Iter 40 | Time 0.2393 | Loss 8.4978(10.8705) | GradNorm 34.8523 | LCoef 50.000000
Iter 50 | Time 0.2371 | Loss 7.5246(10.5727) | GradNorm 28.4618 | LCoef 50.000000
…
